workspaces_emma/ws_4d/models/finn/checkpoints/diff-ad2ss_412/diff-ad2ss_412.pt (torch, 13343 bytes, 24 tensors)

f_fac f8 [1]
0	0x3f824c210e49e9d0	0.008934267281110048

ret_fac f8 [1]
0	0x3ff2ad18240d146e	1.1672593506093807

g_fac f8 [1]
0	0xbf338f1c6fdded77	-0.0002984470773907603

func_f.0.weight f4 [10, 1]
0	0xbed09708	-0.40740228
1	0x3f7cd658	0.9876456
2	0xbdd90dec	-0.105983585
3	0x3ee6a985	0.45051208
4	0xbf0144a0	-0.5049534
5	0x3d463cf3	0.04839797
6	0xbf5b0007	-0.85546917
7	0x3f493a63	0.78604716
8	0x3e58fde5	0.21190603
9	0xbeceeb1b	-0.40413746

func_f.0.bias f4 [10]
0	0xbf5d5984	-0.86464715
1	0xbebd01f0	-0.3691554
2	0x3eee9343	0.46596727
3	0x3f6c6893	0.9234707
4	0x3e673df8	0.22582233
5	0x3f6ccc8e	0.92499626
6	0xbf4bc8d1	-0.79603297
7	0xbdedff67	-0.1162098
8	0x3f2012fa	0.62528956
9	0x3db58390	0.08862984

func_f.2.weight f4 [20, 10]
0	0xbe0438e3	-0.12912326
1	0xbe9d4a02	-0.30720526
2	0x3dd2e2dd	0.10297177
3	0xbe8a9600	-0.27067566
4	0xbdc546ec	-0.09632668
5	0xbdc6b59e	-0.097026095
6	0xbc2571be	-0.010097919
7	0x3e1772c0	0.14789867
8	0x3e4ad683	0.19808392
9	0x3e978671	0.29594758
10	0x3e445fe3	0.19177203
11	0xbdb6e7a1	-0.089308985
12	0x3e7ea15e	0.24866244
13	0xbd6caedc	-0.057783946
14	0x3e1ed1a5	0.1550966
15	0x3da31419	0.07962818
16	0x3e4c9890	0.19980073
17	0xbd270683	-0.040777694
18	0x3b4f2083	0.0031605072
19	0x3e006cbb	0.12541477
20	0x3e436cdb	0.19084494
21	0xbea42e14	-0.32066405
22	0xbe2763c1	-0.16346647
23	0x3d877a4d	0.06615124
24	0xbde8fcde	-0.113763556
25	0x3e0069bf	0.12540339
26	0x3e9a9092	0.30188423
27	0xbdbd9d96	-0.09258573
28	0x3dab4433	0.08362617
29	0xbdfa1328	-0.12210685
30	0xbe93d403	-0.2887269
31	0x3d51a810	0.051185668
32	0xbd94c1b6	-0.0726351
33	0xbe9fc836	-0.31207436
34	0xbe9a07df	-0.3008413
35	0xbd1c9b54	-0.03823407
36	0xbe98ede2	-0.2986899
37	0xbdee8718	-0.11646861
38	0xbd829d28	-0.063776314
39	0xbe1d2811	-0.15347315
40	0xbdd31e72	-0.10308541
41	0x3d3e9594	0.046529368
42	0xbe63d705	-0.22249992
43	0x3e5c56c0	0.21517467
44	0x3b4edede	0.0031565945
45	0xbe4d3b53	-0.20042162
46	0xbdf834de	-0.121194586
47	0x3d3e2f4f	0.046431836
48	0xbe439e01	-0.19103242
49	0xbe8bc669	-0.27299812
50	0xbe4d6df1	-0.2006147
51	0x3e43c0e0	0.19116545
52	0x3e0f41d8	0.13989961
53	0x3db6a1e4	0.08917597
54	0xbc7d2802	-0.015451433
55	0xbe6c8db2	-0.23100927
56	0x3e6c2435	0.23060687
57	0x3e9d8821	0.3076792
58	0xbe323639	-0.17403497
59	0x3e8723cc	0.26394498
60	0x3e1ed057	0.15509163
61	0x3e5fb268	0.218454
62	0x3e6fe576	0.23427376
63	0xbcc4e278	-0.02403377
64	0x3e83a9ec	0.25715578
65	0xbd872595	-0.06598965
66	0x3dead3a7	0.11466151
67	0x3e73ecf1	0.23820855
68	0xbe43305a	-0.19061413
69	0xbe218eb3	-0.15777092
70	0xbe9b0ad4	-0.302817
71	0x3cd3681a	0.025806475
72	0xbe83bd1f	-0.25730225
73	0x3d6e6e58	0.0582107
74	0xbe8965a6	-0.26835364
75	0xbe2e2dd1	-0.17009665
76	0xbe3d24ae	-0.18471023
77	0x3e1b7f1f	0.15185212
78	0x3ea06a1f	0.31330964
79	0x3e1394ae	0.14412186
80	0x3e882c18	0.2659614
81	0x3e844e65	0.2584106
82	0x3da92afb	0.08260151
83	0xbcdf008e	-0.027221944
84	0x3e7f25d7	0.24916779
85	0x3e4d1788	0.20028508
86	0xbe95f802	-0.29290777
87	0xbe745f84	-0.23864561
88	0xbcc27a63	-0.02374
89	0x3d11308a	0.03544668
90	0xbc1481bb	-0.009064133
91	0xbdf27e82	-0.11840536
92	0x3ea50967	0.32233736
93	0xbe095d79	-0.13414563
94	0x3d130e73	0.03590245
95	0xbe6df2a8	-0.23237097
96	0x3e781f48	0.24230683
97	0xbe840274	-0.25783122
98	0x3db39dad	0.08770309
99	0x3e38bc32	0.18040541
100	0x3e0ed781	0.13949396
101	0xbde054a5	-0.10953645
102	0xbe85541d	-0.26040736
103	0x3e9f659a	0.31132203
104	0xbcecd818	-0.028911635
105	0x3dd30f28	0.10305625
106	0xbe00de9c	-0.12584919
107	0xbe7b246e	-0.24525616
108	0x3de3b5bb	0.11118647
109	0x3e787df0	0.24266791
110	0x3e2f9be6	0.17149314
111	0x3e40c3ce	0.18824694
112	0x3cc28c30	0.023748487
113	0xbe9f9e31	-0.31175378
114	0x3e5b998f	0.21445297
115	0xbdecd27a	-0.11563583
116	0x3e6db316	0.23212847
117	0x3e24e457	0.1610273
118	0x3e193b79	0.14964093
119	0xbd2e48db	-0.04254995
120	0x3e94482e	0.2896132
121	0x3e49fc0b	0.19725053
122	0x3e539fd8	0.20666444
123	0xbe15a61d	-0.14614148
124	0xbd98e28c	-0.074650854
125	0xbe0b385d	-0.1359572
126	0xbe48a070	-0.19592452
127	0xbe4af946	-0.19821653
128	0xbd7ad4ed	-0.061238218
129	0x3db4ca11	0.088276036
130	0xbe042bc2	-0.12907317
131	0xbe41c4e7	-0.18922769
132	0xbe825a83	-0.2545968
133	0xbe891969	-0.267772
134	0x3e87df2f	0.26537463
135	0x3d490c4d	0.049083997
136	0xbd86c177	-0.06579869
137	0x3d068a05	0.03284647
138	0x3d86a644	0.065746814
139	0x3e46e9e8	0.19425166
140	0x3dac834e	0.08423482
141	0x3e0490ee	0.12945911
142	0x3e8e00b2	0.27734905
143	0xbe88a9a5	-0.26691929
144	0xbda4e84e	-0.08052121
145	0xbe977679	-0.29582575
146	0x3e6ba8c0	0.23013592
147	0xbe37d12e	-0.1795089
148	0xbddaeea2	-0.10690047
149	0x3cef0ab4	0.029179908
150	0x3e978769	0.29595497
151	0xbe7f6bbc	-0.24943441
152	0x3e233dc8	0.15941536
153	0x3de779d2	0.11302532
154	0x3d1f1ee3	0.038847815
155	0xbd83d22d	-0.06436572
156	0x3ddb70db	0.10714885
157	0x3e16e105	0.14734276
158	0x3e21640f	0.15760826
159	0x3e1e8a6a	0.15482488
160	0xbe0f84dc	-0.14015526
161	0xbe9d3804	-0.307068
162	0xbcd0c0fc	-0.025482647
163	0x3cc1f446	0.023676049
164	0x3e33b067	0.17547761
165	0xbc70f56b	-0.01470695
166	0x3e12d67e	0.14339635
167	0x3db8af38	0.09017795
168	0x3e44ec84	0.19230849
169	0x3e1cc9da	0.15311375
170	0xbe486928	-0.19571364
171	0xbd6420e9	-0.055695448
172	0x3e839b3a	0.25704366
173	0xbe9d24dd	-0.30692187
174	0x3d01bbc5	0.03167321
175	0x3e98942c	0.29800546
176	0xbe5d926b	-0.21637885
177	0x3e0327d8	0.12808168
178	0x3e9bd096	0.30432576
179	0xbe77f423	-0.24214225
180	0xbe011bb2	-0.12608221
181	0x3e8e0efa	0.277458
182	0xbde136c6	-0.10996775
183	0x3d90b64f	0.070660226
184	0x3e8561aa	0.26051074
185	0x3d046b80	0.032329082
186	0xbe89c5d8	-0.26908755
187	0xbe91bef1	-0.2846599
188	0xbdd387a6	-0.10328607
189	0x3e87c2e2	0.2651587
190	0xbd40be31	-0.04705638
191	0x3d823d46	0.06359343
192	0x3e8ce457	0.2751796
193	0xbd5a8b34	-0.05335541
194	0x3e13a32d	0.14417715
195	0x3cc56830	0.024097532
196	0xbd9d82f2	-0.076909915
197	0xbe61f9a1	-0.22067882
198	0xbe261748	-0.16219819
199	0xbe7dee09	-0.24797834

func_f.2.bias f4 [20]
0	0x3e9c6716	0.30547398
1	0x3e80bbb4	0.25143206
2	0xbdd31bb0	-0.10308015
3	0x3e25ae13	0.16179685
4	0xbe4fa91f	-0.20279358
5	0xbbde81ac	-0.0067903604
6	0xbe6c5584	-0.23079497
7	0x3e8ada87	0.27119848
8	0xbe2dab24	-0.16959816
9	0x3d65ff16	0.056151472
10	0xbe9dd0dc	-0.3082341
11	0x3e3ff434	0.187455
12	0xbe55c481	-0.20875742
13	0xbd9e7610	-0.077373624
14	0x3df62d74	0.12020388
15	0xbe817ccd	-0.25290528
16	0xbe302a81	-0.17203714
17	0x3cf1c7ca	0.029514212
18	0x3e928f79	0.28625086
19	0x3e98fefd	0.2988204

func_f.4.weight f4 [10, 20]
0	0x3c4aeb73	0.012385237
1	0xbe114af2	-0.14188746
2	0xbdce44aa	-0.100716904
3	0xbde4d1fe	-0.11172865
4	0x3dcbbe7c	0.099484414
5	0xbe620585	-0.22072418
6	0xbd8a4e73	-0.06753244
7	0x3d8e3fb7	0.069457464
8	0x3e05bea5	0.13061006
9	0x3e36348b	0.17793481
10	0xbddbbccd	-0.1072937
11	0xba80dbd5	-0.000983114
12	0xbd090fad	-0.033462215
13	0x3e0ce62e	0.13759682
14	0xbc2b1b56	-0.010443529
15	0xbd7d468c	-0.061834857
16	0xbe092ab5	-0.13395198
17	0x3e41f128	0.1893965
18	0xbe0f28b7	-0.13980375
19	0xbe370796	-0.17873988
20	0x3e2a3f9f	0.16625832
21	0x3e017358	0.12641656
22	0x3e135484	0.14387709
23	0xbe4c7859	-0.19967784
24	0x3b2dffca	0.0026550167
25	0xbbc3779c	-0.0059651863
26	0x3d1d6ace	0.038431935
27	0x3e6a4241	0.22876836
28	0x3d7b0b88	0.061290294
29	0x3e5da725	0.21645792
30	0x3e0209eb	0.12699096
31	0xbe25e84b	-0.16201894
32	0x3c52da18	0.01286938
33	0xbdacc3c8	-0.0843578
34	0x3c585856	0.013204655
35	0x3e5d4018	0.21606481
36	0x3e380d5c	0.17973846
37	0xbcc08830	-0.02350244
38	0xbd449da6	-0.048001908
39	0x3e137728	0.14400923
40	0xbe49b734	-0.19698793
41	0x3b5ff95c	0.003417573
42	0x3c786318	0.015160345
43	0xbe4e10a4	-0.20123535
44	0xbe2b8420	-0.1674962
45	0xbcc45f25	-0.02397115
46	0xbd9c257a	-0.076243356
47	0xbd201040	-0.039077997
48	0x3df2742f	0.118385665
49	0xbe469f55	-0.19396718
50	0x3de14a67	0.11000519
51	0xbe022f4c	-0.12713355
52	0xbd8da3ee	-0.06916033
53	0xbda05ae5	-0.07829837
54	0x3e4a7f9c	0.19775242
55	0xbe3a662f	-0.18203042
56	0x3dde4ef5	0.108549036
57	0xbd753f7a	-0.05987499
58	0xbde7400f	-0.11291515
59	0xbe10e998	-0.14151609
60	0x3cba2b97	0.022725863
61	0xbe16984d	-0.14706536
62	0xbdc39cb8	-0.09551376
63	0xbe06775b	-0.13131468
64	0x3de4f1be	0.11178921
65	0xbe4897f4	-0.19589216
66	0x3d924404	0.07141879
67	0x3dc5af35	0.09652559
68	0x3d0726c7	0.032995965
69	0xbdd5c19e	-0.1043732
70	0x3e5ab53c	0.21358198
71	0x3d614026	0.054992817
72	0xbde93052	-0.113861695
73	0x3e3d7738	0.1850251
74	0xbe4d4c5d	-0.20048662
75	0xb942265d	-0.00018515573
76	0x3db39eeb	0.087705456
77	0x3d7677a8	0.060172707
78	0xbd393a04	-0.045221344
79	0x3d1b48f8	0.037911385
80	0x3df95d23	0.121759675
81	0x3d10d399	0.035358045
82	0x3daf4a6d	0.085591175
83	0x3e5778b4	0.21042138
84	0xbdabfbdd	-0.083976485
85	0x3e3d542e	0.18489143
86	0x3d9244ca	0.07142027
87	0xbdd71416	-0.10501878
88	0xbe30bb64	-0.17258984
89	0xbd9a2703	-0.07526972
90	0xbe731ef6	-0.2374228
91	0xbd98a122	-0.07452609
92	0x3d47b002	0.04875184
93	0xbe5c9b64	-0.21543652
94	0xbe3b0945	-0.18265255
95	0x3d18a9fd	0.03727149
96	0x3e705745	0.2347079
97	0x3e64522e	0.22296974
98	0x3e1d831f	0.1538205
99	0x3e629d1b	0.22130243
100	0xbd001605	-0.031271
101	0x3da98c0b	0.08278664
102	0xbe02a869	-0.12759556
103	0x3e438522	0.19093755
104	0x3e1060e4	0.14099461
105	0x3d367af4	0.04455085
106	0x3db15945	0.08659605
107	0xbcf5bbb6	-0.029996734
108	0x3e1a4a3e	0.15067384
109	0x3db649f0	0.08900821
110	0xbd99bf17	-0.075071506
111	0xbe36635a	-0.17811337
112	0xbe539e82	-0.20665935
113	0xbe58b0bb	-0.21161167
114	0x3e19d216	0.15021548
115	0x3d2b7b74	0.04186578
116	0xbe83dd14	-0.25754607
117	0xbd83354f	-0.06406652
118	0x3e4cc5a0	0.19997263
119	0x3ce2aa28	0.027669027
120	0x3e189092	0.14898899
121	0xbe178b32	-0.14799193
122	0x3e5700e0	0.20996428
123	0xbd548feb	-0.051895063
124	0xbd2732ee	-0.040820055
125	0x3e490bb0	0.19633365
126	0xbd5c1021	-0.05372632
127	0xbde6d196	-0.11270444
128	0x3ac0ffe2	0.0014724697
129	0xbe49a058	-0.19690073
130	0x3e085e70	0.13317275
131	0xbe0a1203	-0.13483433
132	0x3da5d731	0.08097685
133	0x3de45a05	0.11149982
134	0xbe5fa6c2	-0.21840957
135	0x3e459b35	0.19297488
136	0xbcc87c78	-0.024473414
137	0xbdaa6670	-0.0832032
138	0xbe102fba	-0.14080706
139	0x3e473e72	0.19457415
140	0x3e25030f	0.16114448
141	0x3c069925	0.008215223
142	0x3e5ae203	0.21375279
143	0xbd6de7fb	-0.058082562
144	0x3e087865	0.13327177
145	0xbe20b420	-0.15693712
146	0x3a3f23fc	0.0007291434
147	0x3ddf3b28	0.10899955
148	0xbda7b4b5	-0.08188764
149	0x3de65d59	0.112482734
150	0x3e47e12e	0.19519493
151	0x3e184374	0.14869481
152	0xbd5dbd67	-0.054135706
153	0xbd1ea31d	-0.038729776
154	0x3e1c6fc8	0.15277016
155	0xbdb4b853	-0.088242196
156	0x3dc1dbd0	0.09465754
157	0xbdc1646e	-0.094429836
158	0xbd9b4ac7	-0.07582622
159	0x3e00db76	0.12583718
160	0x3e1a1cb4	0.15050012
161	0xbd5bcda0	-0.053662896
162	0xbdec8280	-0.115483284
163	0x3dd519ae	0.10405289
164	0xbe26a077	-0.1627215
165	0x3e4384ea	0.19093671
166	0xbdc1795b	-0.09446975
167	0x3c90f220	0.01769358
168	0xbe2b1694	-0.16707832
169	0xbe1031e1	-0.14081527
170	0x3d95f8c1	0.07322837
171	0xbe2627e6	-0.16226158
172	0xbc786a87	-0.015162117
173	0xbe55244f	-0.20814632
174	0xbe34f1cb	-0.17670362
175	0xbdf044e4	-0.1173189
176	0x3d4dfff6	0.05029293
177	0x3e46e977	0.19424997
178	0x3e607cc4	0.21922594
179	0xbd691e87	-0.05691388
180	0x3c961af6	0.018323403
181	0x3a84599f	0.001009751
182	0xbcc89cf5	-0.024488905
183	0x3e2c04b6	0.16798672
184	0xbdb701c7	-0.08935886
185	0xbd75b7e6	-0.059989832
186	0x3d389a1e	0.045068853
187	0xbd843fb0	-0.0645746
188	0xbe61aab7	-0.22037779
189	0xbde2ae9c	-0.1106846
190	0xbe420551	-0.1894734
191	0x3e4531a9	0.19257225
192	0x3df13112	0.117769375
193	0xbdc25385	-0.09488586
194	0x3e45895f	0.19290684
195	0x3c4576d9	0.012052261
196	0xbe3be175	-0.18347724
197	0xbd12c721	-0.035834435
198	0xbda5cb6b	-0.080954395
199	0xbdbfe3c7	-0.09369617

func_f.4.bias f4 [10]
0	0x3daf47a3	0.085585855
1	0xbe0140c2	-0.1262236
2	0xbde6c66d	-0.112683155
3	0x3de92077	0.11383145
4	0x3cb55a2b	0.022137722
5	0x3e51dc46	0.20494184
6	0x3e1bf85c	0.1523146
7	0xbc9a5abb	-0.018842092
8	0xbe399cdc	-0.18126243
9	0x3e37fb5d	0.17966981

func_f.6.weight f4 [1, 10]
0	0xbe625490	-0.2210257
1	0xbe988f64	-0.29796898
2	0x3cd42aae	0.025899258
3	0x3e7e0672	0.24807146
4	0xbd7543f2	-0.05987925
5	0x3e5a4e04	0.21318823
6	0xbe832306	-0.25612658
7	0x3d51ffa7	0.0512692
8	0xbe744b05	-0.23856743
9	0x3e1b4431	0.15162732

func_r.0.weight f4 [10, 1]
0	0xbf037f5f	-0.5136623
1	0x3f10edb1	0.5661269
2	0x3c74d8fd	0.014944312
3	0x3e8c76a7	0.27434275
4	0xbecb3147	-0.39686033
5	0xbf0564fc	-0.52107215
6	0x3f7d1ce1	0.9887219
7	0xbead9bd6	-0.33907956
8	0x39be87a0	0.00036340673
9	0xbeaad66a	-0.3336671

func_r.0.bias f4 [10]
0	0xbf87454f	-1.0568026
1	0xbf28d0c9	-0.6594358
2	0x3f286afc	0.65788245
3	0x3e691600	0.22762299
4	0xbf6b41d1	-0.918973
5	0x3b7247e7	0.0036969127
6	0x3ef0a4c1	0.47000697
7	0xbf75984d	-0.9593552
8	0xbed6fd2b	-0.41990027
9	0xbf672b27	-0.9030022

func_r.2.weight f4 [20, 10]
0	0xbe69f2c7	-0.22846518
1	0x3e31d89a	0.17367783
2	0x3d8b8666	0.06812744
3	0x3e651b91	0.22373797
4	0xbeacaf49	-0.33727482
5	0x3e56364f	0.20919155
6	0xbe413a37	-0.18869863
7	0xbec43393	-0.38320598
8	0x3e1cb827	0.15304624
9	0xbeafe34e	-0.34353107
10	0x3ecb64e8	0.39725423
11	0x3d4cc003	0.049987804
12	0xbe5d4e2b	-0.2161185
13	0x3d75e18f	0.060029563
14	0xbda24db5	-0.07924978
15	0x3c0a87da	0.008455241
16	0xbe6c7920	-0.2309308
17	0xbcba0440	-0.022707105
18	0x3ab0bdda	0.0013484315
19	0x3d576ee5	0.05259599
20	0x3e682648	0.22670853
21	0xbd75bd98	-0.059995264
22	0xbe2b2d04	-0.16716391
23	0xbe618764	-0.22024304
24	0x3e3a9b65	0.18223341
25	0x3d09de92	0.033659525
26	0xbe66b33a	-0.22529307
27	0xbcc82b9c	-0.024434857
28	0x3e9ac970	0.3023181
29	0x3e2508f9	0.16116704
30	0xbea09330	-0.31362295
31	0xbd7800b8	-0.06054756
32	0xbcef98d8	-0.029247686
33	0xbe22adb8	-0.15886581
34	0xbd3c35b4	-0.045949653
35	0x3d4e93d1	0.050433937
36	0xbe3c55a4	-0.18392044
37	0xbe069d48	-0.13145936
38	0xbe826cd7	-0.25473663
39	0xbe93ab45	-0.28841606
40	0x3edf76da	0.43645364
41	0x3c5c2537	0.013436607
42	0xbd937a67	-0.07201081
43	0x3d5dae9e	0.054121606
44	0x3e642a35	0.22281726
45	0x3e6304ec	0.22169846
46	0xbce9a01f	-0.028518734
47	0x3d05fc06	0.03271105
48	0x3e838ab5	0.25691763
49	0x3e280827	0.1640936
50	0x3e6aa3c3	0.22914033
51	0x3ecb4a89	0.39705303
52	0xbe62c182	-0.2214413
53	0xbe0a980b	-0.13534562
54	0x3e8c91cd	0.27454987
55	0x3e4f2fdc	0.202331
56	0x3d80da5f	0.06291651
57	0xbe02e1cf	-0.12781452
58	0x3e028eef	0.12749837
59	0x3d23f25a	0.040026046
60	0x3cba9fe2	0.022781316
61	0x3e9663e5	0.29373088
62	0xbea1144f	-0.31460807
63	0x3d9aa286	0.0755053
64	0x3e920b37	0.2852418
65	0xbc6353b1	-0.013874934
66	0xbe287200	-0.16449738
67	0x3cfb94d7	0.03071062
68	0x3d694cfe	0.05695819
69	0x3e05c4a0	0.13063288
70	0x3e51d782	0.20492366
71	0x3d2f1ee7	0.04275408
72	0x3e59ff6c	0.21288842
73	0x3e029812	0.12753323
74	0x3e561775	0.20907386
75	0x3da70017	0.08154314
76	0x3e34aa21	0.17643024
77	0xbe929fe2	-0.28637606
78	0x3d144ab3	0.03620405
79	0xbdbd5f36	-0.09246676
80	0xbe10fb66	-0.14158401
81	0x3dea8768	0.11451608
82	0xbe9c90c8	-0.3057921
83	0x3e1f6eca	0.15569606
84	0x3e998c5f	0.29989907
85	0xbe16e077	-0.14734064
86	0x3e81e8ab	0.25372824
87	0x3e4421d7	0.19153534
88	0xbe7b7f9d	-0.245604
89	0x3e04c8f3	0.12967281
90	0x3e99c251	0.30031064
91	0x3e9bb9da	0.3041523
92	0xbec43081	-0.38318256
93	0xbe186254	-0.14881259
94	0x3e382028	0.17981017
95	0xbbf0ffbc	-0.0073547047
96	0xbe40d220	-0.18830156
97	0x3ebe6ec1	0.37193874
98	0x3ec24458	0.37942767
99	0x3e89510c	0.26819646
100	0x3d19574d	0.037436772
101	0x3ec0453f	0.3755283
102	0xbeb19782	-0.34685904
103	0xbeb706b3	-0.357473
104	0x3e158d76	0.14604744
105	0x3e2d0798	0.16897428
106	0x3e4a38b1	0.19748189
107	0x3eb1ced5	0.34728113
108	0x3e72f436	0.23725972
109	0x3c691911	0.014227168
110	0xbdd9f432	-0.1064228
111	0x3e9cbdeb	0.30613646
112	0xbe6d7c08	-0.23191845
113	0xbd8bff5a	-0.06835814
114	0x3e1d6588	0.15370762
115	0x3d8ff43a	0.070290044
116	0xbda2c93a	-0.07948537
117	0xbccecb3a	-0.02524339
118	0xbe174794	-0.14773399
119	0x3e7bd5d1	0.24593283
120	0x3ea1b208	0.3158114
121	0xbd07d647	-0.033163335
122	0xbcf71e06	-0.030165683
123	0xbec6b1da	-0.38807565
124	0xbdc923a6	-0.098212525
125	0xbe8ee365	-0.27907863
126	0xbde0af08	-0.109708846
127	0xbe4ad5b4	-0.19808084
128	0xbd51b9f4	-0.05120273
129	0x3e411b13	0.18857984
130	0x3e179f5b	0.14806883
131	0x3d67b872	0.056572385
132	0xbe857ecc	-0.260733
133	0xbedd000e	-0.43164104
134	0x3e149a59	0.14512004
135	0xbe3c2258	-0.18372476
136	0xbe62b943	-0.22140984
137	0x3ead2e3e	0.33824342
138	0x3de95562	0.113932386
139	0xbe17146c	-0.14753884
140	0x3e4bd8a4	0.1990686
141	0x3ea84826	0.32867545
142	0xbeb64375	-0.3559834
143	0xbea788ac	-0.3272146
144	0x3e8b0b8f	0.27157256
145	0xbd893a78	-0.06700605
146	0xbeaa0f00	-0.3321457
147	0x3e8b2877	0.2717931
148	0x3e9aad6b	0.30210432
149	0x3d30572e	0.04305189
150	0xbe2621fc	-0.16223902
151	0x3ea0e079	0.3142126
152	0xbd4fd359	-0.050738666
153	0xbda46b14	-0.08028236
154	0x3ebe992c	0.37226236
155	0xbd62d5a9	-0.055379543
156	0x3e1613da	0.1465601
157	0x3e3ea644	0.18618113
158	0x3eadf3bd	0.3397502
159	0x3e9d295b	0.30695614
160	0x3df6318e	0.120211706
161	0xbe6107cd	-0.21975632
162	0x3e6ea83f	0.23306368
163	0x3ec9551f	0.39322755
164	0xbe215470	-0.15754867
165	0x3ec2bab2	0.38033062
166	0x3ec78e3e	0.3897571
167	0xbde1b98c	-0.110217184
168	0xbe970808	-0.29498315
169	0xbe84103b	-0.25793633
170	0xbe633dee	-0.22191593
171	0xbdcf5900	-0.10124397
172	0x3e6d97a1	0.23202373
173	0xbd781318	-0.060565084
174	0xbe2a8231	-0.16651227
175	0x3d1efcc5	0.03881528
176	0xbe6c9f08	-0.2310754
177	0x3e2e0a88	0.16996205
178	0x3e3f9ce0	0.18712187
179	0x3e2a3444	0.166215
180	0x3e1e5313	0.15461378
181	0x3d66f7d5	0.056388695
182	0x3e052ac3	0.13004594
183	0xbeccf41f	-0.4003
184	0x3e719782	0.23592952
185	0x3e652ac4	0.22379595
186	0xbe23f382	-0.1601086
187	0xbc18610f	-0.009300484
188	0x3d6c590e	0.057702117
189	0xbe2a6190	-0.1663878
190	0xbde2fd83	-0.1108351
191	0xbd885f85	-0.06658844
192	0xbe7e0c81	-0.24809457
193	0x3d6f6016	0.058441244
194	0x3eb98842	0.3623677
195	0x3e0b2730	0.13589168
196	0xbe99de7a	-0.3005255
197	0xbe78a753	-0.24282579
198	0xbcc11fc3	-0.023574715
199	0x3ebf70a0	0.37390614

func_r.2.bias f4 [20]
0	0xbc6a6954	-0.014307339
1	0xbe650349	-0.22364534
2	0xbe841a9d	-0.25801554
3	0x3ebac7b1	0.36480477
4	0xbd141ce6	-0.036160372
5	0x3d082f1f	0.033248063
6	0x3e281dc0	0.16417599
7	0x3e7a46d0	0.24441075
8	0xbe9379c1	-0.28803828
9	0x3ca73f47	0.020415915
10	0x3d3cce5b	0.046095233
11	0xbe8adb0f	-0.27120253
12	0xbe86b9a1	-0.263135
13	0xbe14bc63	-0.14524989
14	0x3d535c1a	0.051601507
15	0xbe20ad8f	-0.15691207
16	0x3dd79664	0.105267316
17	0xbe05741e	-0.13032576
18	0xbea7753c	-0.3270663
19	0xbe8b35e7	-0.27189562

func_r.4.weight f4 [10, 20]
0	0xbe5f94cb	-0.21834104
1	0x3e6f706a	0.23382726
2	0x3e96e2e7	0.29469988
3	0xbdd0929e	-0.10184215
4	0x3ea5638c	0.3230251
5	0x3e67b895	0.22629006
6	0x3d5c22e6	0.05374422
7	0xbe433f86	-0.19067201
8	0x3d9a872b	0.075453125
9	0x3db85e56	0.09002368
10	0x3e212be2	0.15739396
11	0x3e520611	0.20510127
12	0x3db71b22	0.08940722
13	0x3e1cfef9	0.1533164
14	0x3e90194d	0.28144303
15	0x3e2ab221	0.16669513
16	0xbe0f6210	-0.14002252
17	0x3dfeed85	0.12447647
18	0x3e8d5a93	0.27608165
19	0x3e16b74f	0.14718364
20	0x3e9d39fe	0.30708307
21	0xbe8f2ca4	-0.27963746
22	0xbdad98a4	-0.084763795
23	0x3e498690	0.19680238
24	0xbe8700f2	-0.2636791
25	0xbe9a2975	-0.30109754
26	0xbd53c9dd	-0.051706184
27	0x3d19b4ff	0.037526127
28	0x3d317bb5	0.043330867
29	0xbe8832d8	-0.2660129
30	0xbe4aec76	-0.19816765
31	0xbeb31ac9	-0.34981373
32	0xbe0d0f1c	-0.13775295
33	0x3c1d7901	0.009611369
34	0xbea16e0e	-0.31529278
35	0xbd9e44cc	-0.07727966
36	0x3b921b42	0.004458816
37	0x3d05444b	0.032535832
38	0xbd96c018	-0.07360858
39	0xbe2482a6	-0.16065463
40	0x3e10a82d	0.14126654
41	0xbe6c32ac	-0.23066205
42	0xbe408459	-0.18800487
43	0x3e88491a	0.26618272
44	0xbc61bfe8	-0.013778664
45	0xbe9cb75a	-0.30608636
46	0xbe7f39c0	-0.24924374
47	0x3e5de05e	0.2166762
48	0x3d6bd667	0.057577517
49	0x3d85a965	0.0652645
50	0xbe89601e	-0.26831144
51	0xbea2a665	-0.31767574
52	0xbe60f754	-0.21969348
53	0xbe716c43	-0.23576455
54	0x3d98f03f	0.07467698
55	0xbc8df0a7	-0.017326666
56	0x3e0c9122	0.13727239
57	0x3c3d226e	0.011543853
58	0xbe987bc6	-0.29781932
59	0xbc95b510	-0.018274814
60	0xbe337215	-0.17523988
61	0x3e7527b2	0.23940924
62	0x3e416ced	0.18889208
63	0xbea526cb	-0.3225616
64	0xbc278b54	-0.0102260895
65	0x3d6fa6ac	0.05850856
66	0x3d03fbb9	0.032222483
67	0xbe5c8c23	-0.21537833
68	0x3e94b4c5	0.29044166
69	0x3e64eebf	0.223567
70	0x3e29a0ee	0.16565296
71	0x3eac36f4	0.33635676
72	0x3e74b08a	0.2389547
73	0x3e3760ca	0.17908016
74	0x3e2b3edf	0.16723202
75	0x3d1ea7d0	0.038734257
76	0xbce2d088	-0.027687326
77	0x3e9ac8c2	0.3023129
78	0x3e6b1a56	0.22959265
79	0x3dab14ed	0.08353601
80	0x3ea9c77f	0.33160016
81	0xbcd31ee5	-0.025771568
82	0xbe95d5bd	-0.29264632
83	0x3da57a67	0.08079987
84	0xbe737450	-0.23774838
85	0xbe5f33f9	-0.2179717
86	0xbdd0f3fe	-0.10202788
87	0x3e4c189a	0.1993126
88	0xbdccefbd	-0.10006664
89	0xbe89e19a	-0.26929933
90	0xbe168897	-0.14700542
91	0xbe8585ea	-0.2607873
92	0xbe8b5726	-0.27214926
93	0xbe686a1c	-0.22696728
94	0xbd8ae4b4	-0.06781903
95	0xbdda1bd3	-0.10649838
96	0x3e716b02	0.23575976
97	0xbe52d4c3	-0.20588975
98	0xbd66c79e	-0.056342714
99	0xbdcc0855	-0.09962527
100	0x3e01abc6	0.12663183
101	0xbe6bb80f	-0.23019432
102	0xbe59e7a4	-0.2127977
103	0x3e2a02c8	0.16602623
104	0xbce106c4	-0.027469046
105	0x3cafecee	0.021475282
106	0x3cd612a9	0.026131945
107	0x3d0284ff	0.031865116
108	0xbe8c55c8	-0.27409196
109	0xbd13548a	-0.035969295
110	0xbeb9a0b2	-0.36255413
111	0xbe87e200	-0.26539612
112	0xbdaf1599	-0.08549041
113	0xbc96b540	-0.018396974
114	0xbea6a184	-0.32545102
115	0xbe158707	-0.1460229
116	0x3d0d7d74	0.03454347
117	0x3c86ed8d	0.016470695
118	0xbe69e53f	-0.22841357
119	0xbe233875	-0.15939505
120	0xbc1f285d	-0.009714213
121	0x3e22871e	0.15871856
122	0x3e527a28	0.20554411
123	0xbdbf5158	-0.09341687
124	0x3e490085	0.19629104
125	0x3e488ca5	0.19584902
126	0xbd806ef6	-0.06271164
127	0xbc788a91	-0.015169756
128	0x3d918700	0.07105827
129	0xbd94edab	-0.07271894
130	0x3e3ad334	0.1824463
131	0x3e578bc3	0.21049409
132	0x3e706a90	0.2347815
133	0x3d9e1993	0.07719722
134	0x3e2404c3	0.16017441
135	0x3e6ce0d3	0.23132639
136	0xbea2eb74	-0.3182026
137	0xbe007ede	-0.12548396
138	0x3e9c1123	0.30481824
139	0xbc2d672e	-0.010583682
140	0xbdbaf19a	-0.09128113
141	0x3dc49a5b	0.095997535
142	0x3d46d134	0.048539355
143	0xbe8442f6	-0.25832337
144	0x3e73861d	0.23781629
145	0xbc6637e9	-0.014051416
146	0x3e3a32be	0.18183419
147	0xbcea472e	-0.028598394
148	0x3e3b364b	0.1828243
149	0x3e55ac75	0.20866568
150	0xbd1771f9	-0.036973927
151	0x3d86d142	0.065828815
152	0x3df2b3cd	0.118507005
153	0xbe07d7db	-0.13265936
154	0x3e9306b3	0.2871605
155	0x3e8bc4b1	0.272985
156	0xbe616e5a	-0.22014752
157	0xbde291f9	-0.11062998
158	0x3e18b0b8	0.14911163
159	0xbd74db90	-0.059779704
160	0xbe4fabf3	-0.20280437
161	0x3d0ad9ac	0.033898994
162	0x3e560802	0.20901492
163	0xbe13f6ef	-0.14449666
164	0x3ea9ed47	0.3318884
165	0xbd474995	-0.048654158
166	0x3e9754e5	0.29556957
167	0xbe18993a	-0.14902201
168	0x3e091867	0.13388215
169	0x3e3720fe	0.1788368
170	0x3e09c359	0.13453425
171	0x3d95e5d0	0.07319224
172	0x3e2e7d3f	0.17039965
173	0x3e59d7fa	0.21273795
174	0x3e2e222e	0.17005226
175	0x3d3b6849	0.04575375
176	0xbe844cb7	-0.2583978
177	0x3e1d87b8	0.15383804
178	0x3e931f70	0.28734922
179	0xbd38c079	-0.04510543
180	0x3d12c670	0.035833776
181	0x3ddce5bb	0.10786005
182	0xbc042bcc	-0.008067083
183	0x3c322834	0.010873843
184	0x3e816e7f	0.25279614
185	0x3e94cb47	0.29061338
186	0x3ead05c5	0.33793464
187	0xbe425353	-0.18977098
188	0x3e00b609	0.12569441
189	0x3a9f254c	0.0012141853
190	0x3dead22b	0.114658676
191	0x3e45fc97	0.19334637
192	0x3e87f0d9	0.2655094
193	0x3e90186a	0.28143626
194	0x3eb95f8f	0.36205718
195	0x3d8d254c	0.068918794
196	0xbc23aa79	-0.009989374
197	0x3c848321	0.016175808
198	0x3c4ef879	0.012632483
199	0x3db3835a	0.08765288

func_r.4.bias f4 [10]
0	0xbe34d758	-0.17660272
1	0x38f5b92c	0.00011717001
2	0x3dc73d83	0.09728529
3	0xbea356e7	-0.3190224
4	0x3d47296b	0.048623484
5	0xbc8f5063	-0.017494386
6	0x3dacec76	0.08443539
7	0xbe5ed89b	-0.21762316
8	0xbe8bf422	-0.27334696
9	0xbe36b732	-0.17843321

func_r.6.weight f4 [1, 10]
0	0xbea6dd89	-0.32590893
1	0x3ea740ff	0.32666776
2	0x3eb4bf06	0.3530199
3	0xbe4c3161	-0.19940712
4	0x3ed77a4c	0.42085493
5	0x3ea59622	0.32341105
6	0xbe8bf1fb	-0.27333054
7	0xbdfa1c27	-0.12212401
8	0xbe39dd43	-0.18150811
9	0xbe105c23	-0.14097647

func_g.0.weight f4 [10, 1]
0	0xbf539331	-0.8264647
1	0x3e7c7d14	0.24657089
2	0x3f1c347f	0.610176
3	0xbf557c71	-0.8339301
4	0xbe29c62f	-0.16579507
5	0xbe806f51	-0.25084928
6	0xbdc13ce6	-0.094354436
7	0xbe81116f	-0.25208613
8	0xbe13ea46	-0.14444837
9	0x3e6272ab	0.22114055

func_g.0.bias f4 [10]
0	0x3f1062de	0.5640086
1	0xbf51f41c	-0.82013106
2	0xbf3db9bf	-0.7411155
3	0x3f1d2ed5	0.61399585
4	0x3f09a0a4	0.53760743
5	0xbc66f4fd	-0.014096496
6	0xbe9d23fc	-0.30691516
7	0xbf4b0f2c	-0.79320025
8	0x3ebcaa6f	0.3684878
9	0x3f439298	0.7639556

func_g.2.weight f4 [20, 10]
0	0x3e5a371f	0.2131009
1	0x3e8c90ac	0.27454126
2	0x3e04d09d	0.12970205
3	0x3e706f21	0.23479892
4	0xbe67d6ce	-0.22640535
5	0x3d35264f	0.044225987
6	0x3e29f41f	0.16597031
7	0x3e8a9b10	0.27071428
8	0xbda635e1	-0.08115745
9	0xbe567e45	-0.20946606
10	0x3d9513d8	0.072791755
11	0xbe6ecd86	-0.23320588
12	0xbdb75d74	-0.08953372
13	0x3aebc6c4	0.0017988314
14	0xbd78ea5a	-0.06077037
15	0x3e94e086	0.29077548
16	0xbe978d28	-0.2959988
17	0xbe9cf4f3	-0.3065563
18	0x3dd3dc33	0.10344734
19	0x3d9bc8dd	0.07606671
20	0xbe80a39d	-0.25124827
21	0x3d43195b	0.047631603
22	0x3dbd28d1	0.09236301
23	0x3d8ddbe6	0.06926708
24	0xbe5cd47f	-0.21565436
25	0xbe78e368	-0.24305499
26	0xbe42e183	-0.19031338
27	0x3e8f7a83	0.28023157
28	0xbe4be422	-0.19911245
29	0xbe8e92ff	-0.27846524
30	0xbe14533f	-0.14484881
31	0xbe2f4bec	-0.17118806
32	0x3e2cb49f	0.16865776
33	0xbe7ffe53	-0.2499936
34	0x3da2b9e5	0.07945613
35	0xbe927d74	-0.28611338
36	0x3e3f0811	0.18655421
37	0x3e2607f0	0.16213965
38	0x3e80d92b	0.25165686
39	0xbbb54a50	-0.0055325404
40	0x3e951c7c	0.29123294
41	0xb9e68931	-0.00043971234
42	0x3e2ce5c8	0.1688453
43	0xbe63287f	-0.22183417
44	0x3e12ea7e	0.14347264
45	0x3a350f59	0.0006906889
46	0x3d235bc4	0.039882436
47	0x3ead5aa8	0.33858228
48	0x3daa63ae	0.08319794
49	0xbc1b1404	-0.009465221
50	0x3d443946	0.047906183
51	0xbdd5017a	-0.10400672
52	0x3db54b01	0.088521965
53	0x3d64b33e	0.055835
54	0xbe6b4765	-0.22976454
55	0xbe20ea55	-0.1571439
56	0xbc230080	-0.00994885
57	0xbd51564e	-0.051107697
58	0xbe95a3f3	-0.29226646
59	0xbe634879	-0.22195615
60	0x3ea5782a	0.3231824
61	0x3d7f53e0	0.06233585
62	0xbeb09c9a	-0.34494478
63	0xbbf4060d	-0.0074470104
64	0xbd1b8402	-0.03796769
65	0xbe83c4d4	-0.25736105
66	0x3e737baf	0.2377765
67	0x3d3c97aa	0.046043076
68	0xbda3dca2	-0.08001067
69	0xbe7e45a0	-0.24831247
70	0xbded184c	-0.115769
71	0x3e7ed3e5	0.24885519
72	0x3e8a1bae	0.26974243
73	0xbe6bb5eb	-0.23018615
74	0xbe57b0b5	-0.21063502
75	0x3e07a0fe	0.13245007
76	0x3e81692f	0.2527556
77	0x3c02de4a	0.007987568
78	0x3e9de10f	0.3083577
79	0x3e1cc96f	0.15311216
80	0xbeadf060	-0.33972454
81	0x3ddccf06	0.10781674
82	0xbe12fbeb	-0.14353912
83	0xbe9f60b0	-0.31128454
84	0x3e8aeb92	0.2713285
85	0x3d6b9674	0.05751653
86	0xbe70c76e	-0.23513576
87	0xbd36d05c	-0.0446323
88	0x3de2c503	0.11072733
89	0xbd93a787	-0.07209688
90	0x3cb294cc	0.021799468
91	0xbe5f9a3c	-0.2183618
92	0xbe419232	-0.18903425
93	0xbda210f6	-0.07913391
94	0x3e93ba17	0.28852913
95	0x3ea10914	0.3145224
96	0x3df2029a	0.118169025
97	0x3dfa1259	0.12210531
98	0xbd07cca8	-0.03315416
99	0x3e84a5d0	0.25907755
100	0x3e70a3a1	0.2349992
101	0x3e2a342b	0.16621463
102	0xbe6a822f	-0.22901224
103	0x3e483a1c	0.19553417
104	0xbe069460	-0.13142538
105	0xbe96ad7d	-0.29429236
106	0xbea7afa1	-0.32751182
107	0xbd10a0c0	-0.035309553
108	0xbe67e2ff	-0.22645186
109	0xbe93de2d	-0.28880444
110	0x3eaa0ea9	0.3321431
111	0xbdf165ef	-0.117870204
112	0xbea6fbc1	-0.32613948
113	0x3d1fc43e	0.03900551
114	0x3e0da070	0.13830733
115	0x3e4869ad	0.19571562
116	0xbe6a7e35	-0.22899707
117	0xbd7ab08f	-0.061203536
118	0xbe1c8ad9	-0.15287341
119	0x3e9b8ceb	0.3038095
120	0xbdb12dc1	-0.08651305
121	0x3c538493	0.012910026
122	0xbe89751d	-0.26847163
123	0xbe5976b4	-0.21236688
124	0xbe871b5f	-0.2638807
125	0x3e5bc934	0.21463472
126	0x3e590669	0.21193852
127	0xbe8c4bcc	-0.27401578
128	0xbe327179	-0.17426099
129	0xbe6577fa	-0.22409049
130	0xbcec14f2	-0.028818581
131	0xbea9c6f6	-0.33159608
132	0xbe6a1668	-0.2286011
133	0xbced945b	-0.029001405
134	0xbd87647f	-0.06610965
135	0xbe2cb6f7	-0.1686667
136	0x3d8a2e81	0.06747151
137	0x3e0a1244	0.1348353
138	0xbb19c4c1	-0.0023463222
139	0x3e06bd9b	0.13158266
140	0x3ea4ca13	0.3218542
141	0x3d50830f	0.050906237
142	0xbeb69eb1	-0.35667947
143	0x3e8870a3	0.26648435
144	0x3e840ecd	0.25792542
145	0xbe2aa322	-0.16663793
146	0x3e7a6067	0.24450837
147	0xbeadff89	-0.3398402
148	0xbe042db9	-0.12908067
149	0x3de4fcde	0.11181043
150	0xbe0a83ce	-0.13526842
151	0xbd527981	-0.051385406
152	0xbe89ab92	-0.2688871
153	0x3e339efe	0.1754112
154	0x3e78451c	0.24245113
155	0x3d7c4691	0.061590735
156	0xbea1368f	-0.31486937
157	0x3e6ad1e7	0.22931634
158	0x3ea012fc	0.31264484
159	0x3e9ec64d	0.31010666
160	0xbe7bc8b2	-0.24588278
161	0x3e774f30	0.24151301
162	0xbe80aa07	-0.2512972
163	0x3e50c9df	0.20389508
164	0x3e702f40	0.23455524
165	0x3e5c9c72	0.21544054
166	0xbe8f62a9	-0.2800496
167	0xbdb8bc97	-0.09020346
168	0x3e2dcfbb	0.16973774
169	0xbe3a87a8	-0.18215811
170	0xbe108ea5	-0.14116915
171	0x3e7c8a79	0.24662198
172	0xbd07c1e5	-0.033143897
173	0x3e6c22ca	0.23060146
174	0xbde981b7	-0.11401694
175	0xbe947dd4	-0.2900225
176	0xbcb68cfa	-0.02228402
177	0xbe03052f	-0.12794946
178	0xbe340eb5	-0.17583735
179	0x3e2aab58	0.16666925
180	0x3e6bc24c	0.23023337
181	0x3ea8f965	0.33002773
182	0x3e8929ff	0.26789853
183	0xbddbdf84	-0.107359916
184	0xbe2ba685	-0.16762741
185	0xbe081d3f	-0.13292406
186	0xbe4e609c	-0.20154041
187	0x3e0d1afa	0.13779822
188	0xbd853724	-0.06504658
189	0xbe8daad3	-0.2766939
190	0xbdbb83e7	-0.09156018
191	0x3ce23446	0.027612817
192	0xbce45a7a	-0.027875174
193	0xbe38565a	-0.1800169
194	0xbe063567	-0.13106309
195	0x3e0ffefd	0.14062114
196	0x3e574f8e	0.21026441
197	0xbe9f6591	-0.31132177
198	0xbd8be4aa	-0.068307236
199	0xbe83bc7f	-0.2572975

func_g.2.bias f4 [20]
0	0xbddb0b2d	-0.10695491
1	0xbe2defd3	-0.16986017
2	0xbd039a98	-0.032129854
3	0xbce040fd	-0.027374739
4	0xbe7541aa	-0.2395083
5	0xbea21c47	-0.316622
6	0x3e422e3d	0.18962951
7	0xbe917aa4	-0.2841388
8	0xbe81f819	-0.25384596
9	0xbdd97a2b	-0.10619005
10	0x3e101eac	0.140742
11	0x3cecfe85	0.028929958
12	0x3d96a233	0.07355156
13	0xbd9339b8	-0.07188743
14	0x3e693f01	0.2277794
15	0xbda1612d	-0.07879863
16	0x3e5a8ed0	0.21343541
17	0xbdfca5e4	-0.123363286
18	0xbe4fd7a5	-0.20297106
19	0x3d3fb8a6	0.046806954

func_g.4.weight f4 [10, 20]
0	0x3e08880f	0.13333152
1	0xbe02dbcc	-0.12779158
2	0x3e7cee19	0.24700202
3	0xbd8c281e	-0.06843589
4	0x3da5946b	0.08084949
5	0x3cac1d0c	0.021009944
6	0x3c48b148	0.012249298
7	0xbe4e5437	-0.20149313
8	0xbda585e7	-0.080821805
9	0xbded3ce4	-0.115838796
10	0xbe44a3ad	-0.19203062
11	0x3e3f9e41	0.18712713
12	0x3c500c4c	0.012698244
13	0xbe670faa	-0.22564569
14	0x3dcb779f	0.09934925
15	0xbe5fdd70	-0.21861815
16	0xbdf2c5eb	-0.11854156
17	0x3e48d690	0.19613099
18	0x3e794a2a	0.24344698
19	0xbe1d9884	-0.15390211
20	0xbdc923d1	-0.098212846
21	0x3db27f17	0.08715647
22	0x3e0be754	0.13662463
23	0xbe7d2934	-0.24722749
24	0xbe66f7da	-0.22555485
25	0x3dbc3f22	0.09191729
26	0xbdce449c	-0.1007168
27	0x3e3b5dcd	0.18297501
28	0xbe158efb	-0.14605324
29	0xbdbc5262	-0.09195401
30	0xbc5af852	-0.013364868
31	0x3e443459	0.19160594
32	0x3de2deb5	0.11077634
33	0x3d5e304d	0.054245282
34	0x3d178b00	0.036997795
35	0x3d3977bc	0.045280203
36	0x3d4e0463	0.050297152
37	0x3d50d3e6	0.050983332
38	0xbd5eacd9	-0.05436406
39	0xbd956017	-0.07293718
40	0xbda537b9	-0.08067269
41	0x3ccfca1d	0.02536493
42	0xbbfc4b80	-0.00769943
43	0xbddb0eea	-0.10696204
44	0x3e7867ab	0.24258296
45	0x3dcbc036	0.09948771
46	0xbe47d6d2	-0.19515541
47	0x3e728b01	0.23685838
48	0x3e57aa10	0.21060967
49	0xbdecc97f	-0.1156187
50	0x3d3e4554	0.046452835
51	0xbe42e444	-0.19032389
52	0x3e7adf49	0.24499239
53	0x3dfbc6d1	0.122937806
54	0xbdfca81a	-0.1233675
55	0x3e38d5f2	0.18050364
56	0x3d1bb339	0.038012717
57	0x3e0d85c9	0.13820566
58	0x3e655dc2	0.22399047
59	0xbe2b7e13	-0.16747312
60	0x3dc2c2d8	0.0950982
61	0x3e6d9d6d	0.23204584
62	0x3df7f0dd	0.12106488
63	0xbdfb3158	-0.12265271
64	0xbd27b51a	-0.040944196
65	0xbe0a1ea6	-0.13488254
66	0x3db5cdf5	0.08877174
67	0x3c81f641	0.015864493
68	0xbe7ff311	-0.24995066
69	0x3dce217c	0.100649804
70	0x3e7b93b4	0.24568063
71	0xbdd8f431	-0.10593451
72	0x3d8a4f53	0.06753411
73	0xbe21e474	-0.15809804
74	0x3d948923	0.07252719
75	0x3e51e7fa	0.20498648
76	0x3e2bdc4f	0.1678326
77	0x3e34902f	0.17633127
78	0x3df1c0b3	0.118043326
79	0xbe022b4d	-0.1271183
80	0xbd70b9c1	-0.0587709
81	0xbd2978a5	-0.04137482
82	0xbe0e2b69	-0.13883747
83	0xbdb5064f	-0.08839094
84	0xbd9e4d4f	-0.07729589
85	0xbe22daf1	-0.15903832
86	0x3e40fc0e	0.18846151
87	0x3d2454ce	0.04011994
88	0xbe5ebf2c	-0.21752614
89	0xbd0b85d3	-0.03406317
90	0x3b64a025	0.0034885493
91	0x3e20e225	0.15711267
92	0xbde72400	-0.11286163
93	0x3e84ba0b	0.2592319
94	0x3e2fc194	0.17163688
95	0xbddd1b38	-0.10796207
96	0xbddc6c58	-0.107628524
97	0xbe001ba6	-0.12510547
98	0xbcc998df	-0.024609027
99	0x3e40b18a	0.18817726
100	0x3d29f3d1	0.041492287
101	0x3ddde0ad	0.10833869
102	0x3e18dcb3	0.1492794
103	0xbe5bb620	-0.21456194
104	0xbe12f851	-0.14352538
105	0x3d8de986	0.06929307
106	0xbdc7f8a6	-0.09764223
107	0x3d375fac	0.044768974
108	0x3e1e95cd	0.15486832
109	0x3e2e5771	0.17025544
110	0x3e7326d3	0.23745279
111	0xbe3df2df	-0.18549679
112	0x3dd38aaf	0.10329186
113	0x3e7f9e37	0.24962698
114	0x3e44b6bf	0.19210337
115	0xbe36570b	-0.17806642
116	0xbdb7719e	-0.08957218
117	0xbc4597bb	-0.012060101
118	0x3cb111ed	0.021614993
119	0xbe20f8f4	-0.15719968
120	0xbd1f1b14	-0.038844183
121	0xbe7bada5	-0.24577959
122	0xbd8be8cc	-0.06831512
123	0x3df204f2	0.118173495
124	0x3d9c5c08	0.07634741
125	0x3d05e170	0.032685697
126	0x3ca39001	0.019966127
127	0xbe083189	-0.13300146
128	0xbd749c74	-0.059719518
129	0x3dc3f418	0.095680416
130	0x3e3b57b7	0.1829518
131	0xbe24d38f	-0.16096328
132	0x3e72cce6	0.23710975
133	0x3d1352f8	0.035967797
134	0x3ca31939	0.019909488
135	0x3e025b74	0.12730199
136	0xbe11aabb	-0.14225285
137	0x3dfe79e1	0.1242559
138	0xbc98185c	-0.018566303
139	0x3e25e2ef	0.1619985
140	0xbd36d018	-0.044632047
141	0x3d5fc76e	0.05463355
142	0xbd33a352	-0.043856926
143	0xbdc41273	-0.095738314
144	0xbdca6570	-0.09882629
145	0x3da2692b	0.079302154
146	0xbe60e58d	-0.21962567
147	0x3d8bc219	0.068241306
148	0x3e1df65c	0.1542601
149	0xbe07354a	-0.13203922
150	0x3dc8ade1	0.0979879
151	0xbd634a4a	-0.05549077
152	0x3e361a32	0.1778343
153	0xbb8270ab	-0.003980716
154	0x3d9e919e	0.07742618
155	0xbe7b433c	-0.24537367
156	0xbd63be1d	-0.055601228
157	0x3e818ff7	0.2530515
158	0x3e366798	0.17812955
159	0x3db07acf	0.08617174
160	0x3e10f707	0.14156733
161	0xbe56fb52	-0.20994309
162	0xbdc55d09	-0.09636886
163	0x3da7c534	0.081919104
164	0xbc80ac5f	-0.015707193
165	0xbcdd2e41	-0.026999595
166	0xbe606e03	-0.21916966
167	0x3e2d68d0	0.16934514
168	0x3df77235	0.1208233
169	0x3e04875b	0.12942259
170	0xbca73b3a	-0.020413984
171	0xbdcaeb39	-0.099081464
172	0x3e20a0b1	0.15686299
173	0xbc35961d	-0.011083153
174	0xbe6bd24e	-0.23029444
175	0xbe28ad35	-0.16472323
176	0xbd7a4c1e	-0.061107747
177	0x3e0671ba	0.1312932
178	0x3e1f8636	0.15578541
179	0xbce3d05b	-0.027809313
180	0x3e3f534c	0.18684119
181	0xbe41c406	-0.18922433
182	0x3e2ae86d	0.16690226
183	0x3e3c83c5	0.18409641
184	0x3e5c3beb	0.21507232
185	0x3cddc702	0.027072433
186	0xbd985bbd	-0.07439373
187	0x3e561ce5	0.2090946
188	0xbe02eefa	-0.12786475
189	0x3dde1020	0.10842919
190	0x3d9d8a68	0.076924145
191	0x3ce1a7da	0.027545858
192	0x3e5ab29d	0.21357198
193	0xbe06cb19	-0.13163413
194	0x3e187f72	0.14892367
195	0x3ce2d2b6	0.027688365
196	0x3d460fc9	0.048354898
197	0xbd4ac52f	-0.049504455
198	0x3a188d97	0.00058194384
199	0xbe4d2de1	-0.20037033

func_g.4.bias f4 [10]
0	0xbda977d3	-0.08274808
1	0xbddd1909	-0.10795791
2	0xbd40f9c6	-0.047113203
3	0x3e4d181f	0.20028733
4	0xbe024e96	-0.1272529
5	0x3b83ff52	0.0040282393
6	0x3e13e64a	0.14443317
7	0xbe5b12c4	-0.21393877
8	0x3e329a49	0.17441668
9	0x3e1628c3	0.14663987

func_g.6.weight f4 [1, 10]
0	0x3ec17762	0.37786394
1	0xbe403b4c	-0.1877262
2	0x3df7df0d	0.121030904
3	0xbe2d3097	-0.16913067
4	0xbeaab955	-0.33344522
5	0xbcd38fea	-0.02582546
6	0x3e756fd8	0.23968446
7	0x3e1708aa	0.14749399
8	0x3e6b90e4	0.2300449
9	0x3e56c778	0.20974529
